Using TensorFlow backend.
_________________________________________________________________
Layer (type)                 Output Shape              Param #
=================================================================
embedding_1 (Embedding)      (None, 200, 200)          3547400
_________________________________________________________________
lstm_1 (LSTM)                (None, 200, 400)          961600
_________________________________________________________________
lstm_2 (LSTM)                (None, 400)               1281600
_________________________________________________________________
dense_1 (Dense)              (None, 400)               160400
_________________________________________________________________
dense_2 (Dense)              (None, 17737)             7112537
=================================================================
Total params: 13,063,537
Trainable params: 13,063,537
Non-trainable params: 0
_________________________________________________________________
None
Epoch 1/100
2022-12-17 18:08:59.627007: I C:\tf_jenkins\home\workspace\rel-win\M\windows-gpu\PY\36\tensorflow\core\common_runtime\gpu\gpu_device.cc:1030] Found device 0 with properties:
…
